AI/pytorch/MNIST/model.ckpt (torch, 122031 bytes, 14 tensors)

layer1.0.weight f4 [16, 1, 5, 5]
000000 ee 0a 44 be 43 16 08 be 0a a2 93 3e 61 c1 e7 bd
       -0.19144794 -0.13289742 0.28834563 -0.11316181
000010 15 a5 d7 bd 71 ea 41 be 64 69 63 3e 62 30 28 3e
       -0.10529534 -0.18937089 0.22208172 0.16424707
000020 94 42 af be 5f 73 a8 be 85 35 03 3d 28 81 c2 3d
       -0.34230483 -0.3290052 0.032033462 0.09497291
000030 bf d6 c1 3d 72 e5 98 3d e9 9e 00 3e d5 b2 08 3d
       0.09464788 0.07465638 0.1256062 0.033373673
000040 87 f4 49 3d ef 0a 73 3b 91 a1 28 3e 16 76 46 3e
       0.049305465 0.0037085374 0.16467883 0.19380984
000050 1c 02 f1 bd 7d 0b bc 3d a4 3f 13 be 1c 09 18 be
       -0.117679805 0.09181879 -0.14379746 -0.14847225
000060 02 5c 49 bd 76 4a b6 3d b2 36 80 bd 00 50 45 be
       -0.04916001 0.08900921 -0.06260432 -0.19268799
000070 60 f5 28 be b2 f8 51 be 39 d1 23 be e3 d1 90 be
       -0.16499853 -0.20505026 -0.15997781 -0.2828513
000080 cc fd 19 be de 87 eb bd 41 a3 02 3e 6b 14 62 be
       -0.15038222 -0.11500524 0.12757589 -0.22078101
000090 de fe 5b be c6 bf dc bd e4 70 07 3e 5c d9 09 3e
       -0.21483943 -0.107787654 0.13226658 0.13461822
0000a0 d6 45 4c be ed 16 bc bc 8d 6d 6f 3e 5e b6 52 bc
       -0.19948515 -0.02296015 0.23381634 -0.012860863
0000b0 1e 93 84 3e 72 3d 80 be 0b 4a 6a be 96 82 27 bd
       0.25893492 -0.2504688 -0.22879808 -0.04089602
0000c0 6d e4 e7 bd ef 03 0b 3e f0 c7 ba bd 2a 76 dd 3d
       -0.11322866 0.1357572 -0.09120166 0.10813554
0000d0 91 6c 2f be 97 3e 91 bd 4a 08 b8 3d c5 b9 c5 be
       -0.17131259 -0.07092016 0.08985956 -0.38618293
0000e0 22 b3 32 bc 22 df d4 3c 53 b4 5a 3d 73 01 7e 3d
       -0.010906966 0.025985304 0.053394627 0.0620131
0000f0 e7 b4 59 3c c0 01 c9 3e 7a f6 1d 3d 24 a2 48 be
       0.013287759 0.39259148 0.038565136 -0.19593102
000100 6d ac 93 3d b0 50 98 3d 0a ff c4 bc a5 64 c4 be
       0.07210622 0.07437265 -0.024047393 -0.38358036
000110 0a 21 2b be 1e 34 c9 3d bc fb 3f 3e c0 5d 3f be
       -0.16711822 0.09824394 0.18748373 -0.18688107
000120 b7 5e 12 3e 76 4e 2d 3e b6 81 0e 3d f6 64 cd bd
       0.14293943 0.16924462 0.03479167 -0.100290224
000130 32 37 27 3e 7a 32 45 3c cf 22 f3 bc 08 19 11 bd
       0.16329649 0.01203596 -0.029679684 -0.035424262
000140 e3 bf 11 bb d3 2a 5d 3d 58 c6 fd 3d c6 ef 5c be
       -0.0022239618 0.05399592 0.12391347 -0.21575841
000150 fa 65 89 be 3a 8f 41 be 45 2b 20 3e b5 ca b6 be
       -0.26835614 -0.18902293 0.15641506 -0.35701528
000160 7b 30 62 be 0a 59 3b 3e 28 43 24 3e 18 e6 92 be
       -0.22088806 0.18295684 0.16041243 -0.28691173
000170 6a 74 6f be c8 b1 80 3e 13 21 c9 3d 7b c0 4a be
       -0.23384252 0.25135636 0.098207615 -0.19799988
000180 cb 90 84 be 40 c9 29 3e f9 fd 55 3e 6f 22 08 be
       -0.25891718 0.16580677 0.20897664 -0.13294385
000190 e4 84 91 3d 6d c6 2f 3e af 3e d7 3e 71 d2 6d 3e
       0.07105425 0.17165537 0.4204001 0.23224808
0001a0 7e d2 5d bd fa 9c 62 3e 14 94 b7 3d 55 54 d3 bd
       -0.05415582 0.22130194 0.089637905 -0.103188194
0001b0 0c be cd 3d 9f 6c 80 3d 30 c5 8c 3e 26 d0 98 bd
       0.10046014 0.06270718 0.27494192 -0.07461576
0001c0 b0 67 d5 3c bd 2b 71 3e 2d 7a b1 bd c0 83 63 3b
       0.026050419 0.23551841 -0.08665881 0.003471598
0001d0 48 a1 1d be 56 3f 2c 3e d1 c9 b9 3e 2e b3 76 3e
       -0.15393555 0.16821036 0.36286786 0.24091789
0001e0 4d db 33 be 34 f6 5a 3d ce 69 1d bb 64 27 80 3d
       -0.17564125 0.053457454 -0.0024019363 0.06257513
0001f0 41 ed a5 bd 66 32 84 3e ba 10 f6 3d a8 75 08 bf
       -0.08101893 0.258197 0.12014909 -0.5330453
000200 bb e5 1e be e4 aa ba bc c4 c2 57 3e b7 2d 67 3d
       -0.15517323 -0.022786565 0.21070391 0.05644008
000210 d6 17 81 bc a3 8e 9f 3e f9 09 21 3e 2d f7 eb 3b
       -0.015758436 0.3116351 0.1572646 0.0072010965
000220 bf 1f 76 bd 74 12 53 be 7e 3b 19 3d 82 27 8e 3d
       -0.06008887 -0.20612508 0.03741025 0.06941129
000230 b2 65 08 3e 29 70 35 3e 9e af 17 bd 8e 2f 59 3e
       0.13320044 0.17718567 -0.037032716 0.21209547
000240 9f 57 0c be 02 c1 42 3d c2 e9 74 3e 3e 3e 82 3d
       -0.137053 0.047547348 0.23917297 0.06359528
000250 3f 99 2b bc 89 7b e3 3c 2d 31 ed 3c 54 ed e5 3b
       -0.010473548 0.027768867 0.028954113 0.007016817
000260 7b 68 38 3e 7a e1 c9 3d 1c 5d 21 3e 42 31 3d 3d
       0.18008606 0.09857459 0.15758175 0.046189554
000270 0c 28 2a 3e ad d2 2f 3e cd 2b 03 3e cd d6 86 3e
       0.16616839 0.1717021 0.12809677 0.26335755
000280 fe 52 79 be 32 0b 26 be 39 ee c6 3c 25 b3 a8 3d
       -0.24348065 -0.16215208 0.024283515 0.08237294
000290 65 bf 1f bd 98 8f af be 65 74 c5 bd ef 41 31 be
       -0.039000887 -0.3428924 -0.09641341 -0.17310308
0002a0 33 ea 79 be 2f 14 5d be 15 af 92 bd fa ac 99 be
       -0.24405746 -0.2158973 -0.071623005 -0.30014783
0002b0 81 91 87 be be 42 25 be b8 07 10 bd 46 5e bd be
       -0.26478198 -0.16138741 -0.03516361 -0.36985987
0002c0 c1 ba 87 be a3 c9 83 be fa f1 90 be a2 05 5d be
       -0.2650967 -0.25739774 -0.28309613 -0.2158418
0002d0 0e 32 c2 3d 09 03 99 bc a2 10 c0 3d e9 b5 5c 3d
       0.094822034 -0.018678205 0.093781725 0.05388442
0002e0 e7 c6 66 bd 5f c9 2a 3e fe 80 85 3e 7c af 57 3e
       -0.05634203 0.1667838 0.26074976 0.21063036
0002f0 b9 07 be 3d f2 f8 08 3c 56 05 02 be 1d 9f 21 be
       0.09278817 0.008360134 -0.12697348 -0.15783353
000300 38 a2 59 be 5c de d4 3d 50 ca bd 3d d0 b8 90 3d
       -0.21253288 0.10393974 0.09267104 0.070665
000310 96 61 2e bc b5 7c fb 3d a0 50 2c be 5f d7 bb 3c
       -0.0106433835 0.12279645 -0.16827631 0.022929845
000320 58 f5 7e bd a0 1c 04 3e c0 73 4b 3d 9c 0c 8a 3e
       -0.062245697 0.12901545 0.049670935 0.26962745
000330 fd 38 09 3d bf 18 dc be 8c 37 8d be b8 57 1e be
       0.033501614 -0.4298763 -0.2758144 -0.1546315
000340 e9 ac d4 3d f4 4e 4c 3e 2c aa 67 3d 46 91 63 be
       0.103845425 0.19951993 0.056558773 -0.22223386
000350 de bb a5 be ad 3c d6 be c9 57 11 be b4 c4 3f 3e
       -0.32369894 -0.41843167 -0.14193644 0.1872738
000360 9d af ac 3d 49 e4 d6 bd 7a c1 f5 3b be 59 93 be
       0.08431933 -0.10492761 0.007499871 -0.28779405
000370 12 40 f3 3c 03 bb cb 3d b3 a0 6e 3d 3b 25 05 3c
       0.029693637 0.09947779 0.058258723 0.008126552
000380 50 28 f6 3d 97 f2 b2 be 71 11 2e be e3 31 b6 bd
       0.12019408 -0.34950706 -0.16998841 -0.08896234
000390 d5 ff 00 be c5 cd 29 3d d0 1c 36 be 53 ab f4 be
       -0.12597592 0.041456003 -0.17784429 -0.4778696
0003a0 fb e3 b4 be 93 d4 a2 be fd 1c 23 be 8e 57 3f 3d
       -0.35330185 -0.31802806 -0.15929027 0.046714358
0003b0 69 c9 9c 3e ed c2 17 3d 77 d4 78 be 5f da 85 be
       0.30622414 0.03705113 -0.24299799 -0.26143166
0003c0 1a 27 3a 3e d6 75 ab 3d df ca 1d 3c d9 1d 14 bd
       0.18178979 0.08372085 0.009630888 -0.036161277
0003d0 7a cc f5 bd 43 57 ef bc 08 f0 17 3e 4a 0e 49 3e
       -0.120018914 -0.029216414 0.14837658 0.19634357
0003e0 ec c3 25 bc 9a e2 21 bd 94 9e b5 3d 5e 6e 59 be
       -0.010117512 -0.039522745 0.08868137 -0.21233508
0003f0 c8 14 2d be 41 fe dc 3d d5 82 6f 3d ce b3 43 3d
       -0.16902459 0.107906826 0.05847438 0.047778897

layer1.0.bias f4 [16]
000000 4a 9b e0 3c 79 ea 11 3e 44 12 34 3e b8 7d a9 3d
       0.027417798 0.142496 0.17585093 0.08275932
000010 dc cb d9 3c 14 bb 51 be 2b 23 2d 3e 08 7c 3f 3e
       0.026586466 -0.20481521 0.16907947 0.18699658
000020 de c6 2e 3b b4 1a 50 3d 4c 08 54 3d a9 ae c6 bd
       0.0026668827 0.050806716 0.051765725 -0.097012825
000030 41 ea ae 3d eb 8e 2a 3e e6 b3 5b be 7c ba 0c be
       0.08540774 0.16656081 -0.21455345 -0.13743013

layer1.1.weight f4 [16]
000000 71 c6 37 3f 6d 84 9d 3f 7f c1 35 3f 43 21 ad 3f
       0.7178717 1.2306038 0.70998377 1.3525776
000010 65 a9 d5 3e 44 4f 07 3f 9b 56 8e 3f ec e6 73 3f
       0.417308 0.52855325 1.112018 0.95274234
000020 f3 4d 99 3f 60 1c 90 3f 6a 4c 80 3f c6 88 6d 3f
       1.1976913 1.1258659 1.002332 0.92786825
000030 a3 02 9e 3f a3 03 5b 3f 57 47 78 3f b9 f2 94 3f
       1.2344555 0.85552424 0.96983856 1.1636573

layer1.1.bias f4 [16]
000000 71 10 02 bf ca 68 4a be 36 9b fc be cc 2b 9b be
       -0.5080634 -0.19766536 -0.49337167 -0.30306852
000010 80 10 41 bf 2f c3 36 bf 09 b6 24 be 0e 86 23 3d
       -0.754158 -0.71391577 -0.16085066 0.039922766
000020 12 df 2c be 3d c3 5f be c4 8d c1 be 39 f1 ae be
       -0.1688197 -0.21851821 -0.3780347 -0.34168413
000030 d5 b5 80 be c0 f2 b5 3d 21 a5 bc be c0 ae e8 bd
       -0.25138727 0.088841915 -0.36844733 -0.11361456

layer1.1.running_mean f4 [16]
000000 ab 12 da ba a3 06 82 bd b4 2c 29 3e aa fb 03 bd
       -0.0016637644 -0.06348922 0.16520959 -0.032222427
000010 ca 38 95 3e fa 4a a8 bd b2 09 1a 3d f3 e3 b3 3d
       0.2914489 -0.08217426 0.037606902 0.08783712
000020 ca 48 03 be 50 b9 49 be cd 13 e4 3c 27 c1 c5 bd
       -0.12820736 -0.19699597 0.027841473 -0.096559815
000030 10 92 84 bd 62 bb b5 3d ff 1f 93 be 97 8b 9c be
       -0.06473172 0.08873631 -0.2873535 -0.3057525

layer1.1.running_var f4 [16]
000000 0c 2b f2 3c 35 89 68 3e 2f 2a 9a 3c d5 78 9f 3d
       0.029561542 0.2270859 0.018818943 0.07786719
000010 14 0f 5e 3e 01 8e 86 3d 40 d3 44 3e e9 fb 86 3d
       0.2168544 0.06570054 0.1922121 0.06591017
000020 27 38 dd 3d 4b 1b 87 3e 6d b8 ab 3c d9 d6 39 3d
       0.10801726 0.2638801 0.020961965 0.04537091
000030 60 35 1e 3e 27 c0 53 3d 23 8c a7 3d 4e 74 65 3e
       0.15450048 0.051696923 0.08181026 0.22407648

layer2.0.weight f4 [32, 16, 5, 5]
000000 0f 21 0c 3d 33 de d0 3e cd ed 19 3d 14 4d 4c 3e
       0.034211215 0.40794525 0.0375803 0.19951278
000010 20 54 d7 3c a8 67 61 3e 6d 09 29 3c bf 87 0f be
       0.026285231 0.22012198 0.010317189 -0.14016627
000020 6b 95 44 bd 6f 77 24 bd 02 28 f6 bb b9 5b 03 be
       -0.04799406 -0.040152963 -0.0075120935 -0.12827958
000030 0f 42 af 3c bb 43 04 3d 1f 9b fc 3d 9d 14 0b bc
       0.021393804 0.032291155 0.123342745 -0.008488801
000040 fe 48 89 3c 6f 51 a6 3d 37 13 7b bd b9 b1 a8 3d
       0.016758438 0.08121001 -0.06129762 0.08237023
000050 60 25 87 3d 1a 9b 26 3e 3a 2e 40 3e 4b 94 bf bd
       0.065989256 0.16270104 0.18767634 -0.093544565
000060 3c fc 6a 3e 52 a0 2d be d0 3b c0 bc 62 e9 30 be
       0.22947782 -0.16955689 -0.02346602 -0.17276528
000070 a0 c7 95 3b 50 12 e5 3c bf 6b b9 bd 24 37 27 be
       0.0045709163 0.027962834 -0.09053754 -0.16329628
000080 5f 6e 44 be 67 d8 70 bc 72 53 7c bb be 89 47 be
       -0.19182728 -0.014700032 -0.0038501886 -0.19486138
000090 eb 89 93 3d a0 56 ae 3d 27 20 f5 3d 21 a4 6a 3d
       0.0720404 0.08512616 0.11969023 0.05728543
0000a0 1b fb 41 3d fb 40 75 3e ee 26 52 3e 1a 5e 08 3e
       0.047358613 0.2395057 0.20522663 0.13317147
0000b0 25 df f3 3d b9 3d a3 3d c9 ca 9d bd e5 69 94 bc
       0.11907796 0.07970757 -0.07704694 -0.0181169
0000c0 50 ec 7e 3d 4b 23 72 3c 15 18 21 3c cb 8d fa bb
       0.062237084 0.014778922 0.009832402 -0.0076462976
0000d0 97 f4 3f be a0 0f fe 3d a5 3c f6 3d 09 a7 54 be
       -0.18745647 0.12405324 0.12023286 -0.20766844
0000e0 fc 4c 54 bc e0 3b bc bd 6a e9 a8 3d 99 6a 97 3d
       -0.012957808 -0.09191108 0.08247645 0.07393379
0000f0 7e bf b7 bc 0c 76 cb bc 10 00 c5 bd 46 d6 93 3d
       -0.022430178 -0.024836563 -0.096191525 0.07218604
000100 11 4f f2 bd 13 06 a9 3d 1b 0e 79 3d 8c d7 1d bd
       -0.11831487 0.08253112 0.060804468 -0.03853564
000110 db 66 11 3e e0 c6 04 be 45 77 b3 3d e3 3d 0e 3e
       0.14199392 -0.1296649 0.08762983 0.13890795
000120 10 08 e2 3d 3f 34 89 3d 94 1a 3e bd 69 be 11 bd
       0.11036694 0.06699418 -0.046412066 -0.03558198
000130 1c bf 1f be f0 9d 68 be 78 28 0b be a9 5b 1d 3d
       -0.15600246 -0.22716498 -0.13589656 0.038417492
000140 d5 cb 56 be 8e 60 44 be 15 e8 0f be 2c 8f aa 3d
       -0.20976193 -0.19177458 -0.14053376 0.08328089
000150 08 4a 48 3d 13 f6 a6 3d 7d a3 53 3e 46 c0 43 3e
       0.048898727 0.08152404 0.20667835 0.19116315
000160 fa 3c 77 bd 11 9a 8f bb bc 08 03 3d d9 a0 a4 3d
       -0.060360886 -0.00438238 0.03199075 0.08038492
000170 ca 35 7a bc 4c 49 99 bd 5e 86 52 3d fd 9a 06 3e
       -0.015271613 -0.074846834 0.051397674 0.13145061
000180 4d c2 09 3e d4 50 e2 bc 1a a3 fb bd 63 64 a6 ba
       0.13453026 -0.027626432 -0.122869685 -0.0012694712
000190 09 c0 2f 3d 47 86 16 bd 4a 08 08 bd 12 f4 6e bc
       0.04290775 -0.03674915 -0.03321103 -0.014584558
0001a0 42 be ef 3d 00 2c 0c 3e c1 9f a0 3d 75 88 4c bd
       0.11706211 0.1368866 0.07842971 -0.049934823
0001b0 0f 36 27 3d f4 2c 42 3e 5a 23 3a bd 52 c7 7d 3d
       0.04082304 0.18962461 -0.04544387 0.061957665
0001c0 11 75 9c 3d a4 ec dc 3d db 24 a4 3d dc 35 d7 bd
       0.07639516 0.10787323 0.08014842 -0.1050832
0001d0 6e d2 98 bd 7a 63 2f be b9 a5 0c 3d a2 b7 66 bd
       -0.07462011 -0.17127791 0.034337733 -0.05632747
0001e0 f9 71 91 be 7b 61 50 be 5f 80 11 be 91 d0 c1 bd
       -0.28407267 -0.20349686 -0.14209126 -0.09463609
0001f0 29 a2 b7 bd 55 b3 34 3e 55 a2 c1 3d 3b 7a 0d 3e
       -0.089664765 0.17646535 0.094547905 0.13816158
000200 19 9c d7 3d c6 c5 98 3d c2 e1 56 3c 2c 28 e6 3d
       0.1052782 0.07459597 0.013115348 0.11238131
000210 6f cc 1b bd 7c ea 08 be 3b 4b 28 3d 81 d0 cc bd
       -0.03803676 -0.13370699 0.04108737 -0.100007065
000220 c5 83 1c bd 15 a8 18 be fc cc 1b bd 39 45 d8 bd
       -0.038211603 -0.14907868 -0.038037285 -0.10560078
000230 a3 43 ed bd 16 06 1c be 9e 5a 63 be 50 84 a0 bc
       -0.11585166 -0.15236697 -0.22202536 -0.019594342
000240 a6 f3 e5 bd 10 9d 82 bd 01 45 87 3d 94 06 59 be
       -0.11228113 -0.063776135 0.06604958 -0.21193916
000250 e2 48 d2 3c c5 0a 01 be f3 83 85 3d 9e cf 8b 3d
       0.025669519 -0.12601765 0.06519308 0.06826709
000260 3a 1d 9c 3c 80 48 f7 3c 39 4e db 3b 30 c1 e0 3c
       0.019056905 0.030185938 0.0066926745 0.027435869
000270 02 a6 d6 3d 2d d9 1a 3d b4 c9 b5 3d d4 9f 32 3c
       0.10480882 0.03780477 0.088763624 0.010902364
000280 52 00 2a 3e 7f be a3 ba 2c 7f 89 3b d0 c3 d0 bd
       0.16601685 -0.0012492685 0.0041960683 -0.10193598
000290 a0 d1 55 bd f0 da 5c be 17 25 17 bd 16 ba 70 bd
       -0.052201867 -0.21567893 -0.036900606 -0.058771215
0002a0 96 51 c1 bd 78 17 de 3c d6 a2 ad bd 10 2d ce 3a
       -0.094393894 0.0271108 -0.08478324 0.0015729982
0002b0 82 42 8e bd c2 fb 54 bd 6f 8b 5a 3d 8f 24 78 be
       -0.06946279 -0.051997907 0.05335563 -0.24232696
0002c0 87 2b 17 bc cb 2c c7 3c 0b 4d 15 3e ba 54 42 3e
       -0.009226686 0.024313351 0.14580171 0.18977633
0002d0 f5 a7 39 bd 2d 23 6e 3d ca 7b 01 3e b1 ee 7d 3e
       -0.045326192 0.058139015 0.12644878 0.24798085
0002e0 a4 63 cd bc 3c d9 9b bd 76 cf 68 3d 36 1b 4c 3d
       -0.025071926 -0.076097935 0.056838475 0.049830638
0002f0 f9 ae 02 be 85 24 63 be 69 15 d0 bd e6 3a 6d 3d
       -0.1276206 -0.221819 -0.10160334 0.057917498
000300 1c 9a fe 3c 0f 22 95 3c 64 47 8b bd 33 e8 04 3d
       0.031079344 0.018204717 -0.06800726 0.032448005
000310 81 ba 2d 3b c3 2b 2f 3c 1c 27 5e 3c 1e 2c 04 bd
       0.002650887 0.010691586 0.013559129 -0.032268636
000320 c6 1f e6 bd 95 0a ba bc b7 bf b5 3d 7f 62 3e 3e
       -0.11236529 -0.022710124 0.08874457 0.18592261
000330 fa e2 96 bd 84 f6 21 3e 55 25 4e 3e 6d 69 7c 3e
       -0.07367511 0.15816694 0.20131429 0.24649592
000340 60 d6 2c 3e e6 68 37 bd a1 8a aa 3d 64 0f 63 bd
       0.16878653 -0.044777773 0.083272226 -0.0554346
000350 7a f5 2a be 80 21 75 be 15 00 bb be 51 77 15 bc
       -0.16695204 -0.2393856 -0.365235 -0.0091226855
000360 1e 6a da bc 7d 73 90 3d 2c 45 c0 3b 01 4e d1 bd
       -0.026661929 0.07053278 0.005867621 -0.10219956
000370 0f 3b b5 bc 2c 1a 69 bd e9 87 6a 3c 62 62 af bb
       -0.022122888 -0.056909725 0.01431463 -0.0053523043
000380 11 bd dd bd 5e 58 9b be 65 de c9 bd 2e 0a a5 bd
       -0.10827077 -0.30340856 -0.098568715 -0.08058582
000390 79 52 5e 3d 4e 40 02 be e6 c9 aa bd de 26 10 3d
       0.05427787 -0.12719843 -0.0833929 0.035193317
0003a0 41 2c 65 3e 0c 6c 52 3e 78 fa 31 be 6c 3a 0f 3e
       0.22380163 0.20549029 -0.17380702 0.1398713
0003b0 eb dc de bd d4 65 b3 3d 0d 65 02 be 00 b2 9f be
       -0.108819805 0.087596565 -0.1273386 -0.3119049
0003c0 88 1c c4 3d a3 3c 38 be 8a 6d c7 3c 85 84 a9 be
       0.095757544 -0.17991881 0.024344224 -0.33108917
0003d0 a5 66 f8 bd 00 70 c3 bd cc 76 d6 bc b6 9e f5 bc
       -0.12128953 -0.09542847 -0.026179694 -0.029982906
0003e0 d0 17 98 be 74 06 0e 3e 4a 19 b4 be 6e 93 bc be
       -0.29705667 0.13869649 -0.35175544 -0.3683123
0003f0 f2 e7 1e 3e 08 3d 8e bc 38 e3 d4 bc 0d 5f b1 3d
       0.15518168 -0.017363086 -0.025987253 0.086607076

layer2.0.bias f4 [32]
000000 ae 1f 6a bd 00 ac b8 3b 99 65 71 bd 79 65 01 3d
       -0.05715912 0.0056357384 -0.05893478 0.031590912
000010 3d e5 a3 bc 3d da c6 bc 51 bc d2 3a 7b 57 30 3d
       -0.02000677 -0.024273986 0.0016077851 0.043052178
000020 36 8c 46 bd 70 2e 02 ba c8 ff cc 3a b7 a8 85 3c
       -0.04847356 -0.0004966026 0.0015640194 0.016315801
000030 8d a2 22 bd 99 7d 70 3c eb 41 6c bc 92 a4 0f bd
       -0.0397058 0.014678382 -0.014420013 -0.035069056
000040 00 f4 0e 3d b8 af 11 3c a2 89 8d bd bf d7 c0 3c
       0.034900665 0.008891992 -0.06911017 0.023540376
000050 4f 71 44 3d ba 40 2b 3d db 4b 52 3d 6d 29 c1 bc
       0.047959622 0.041809775 0.051341873 -0.023579324
000060 69 79 6d 3d 97 f9 34 3b b8 d5 47 bc 22 b6 37 bb
       0.057977114 0.0027614587 -0.012196951 -0.0028032144
000070 6a 41 27 bd c1 d9 0e bc d3 b8 1e bc c4 6c 76 3b
       -0.040833868 -0.008718909 -0.00968762 0.003760145

layer2.1.weight f4 [32]
000000 84 7b a1 3f 66 e0 84 3f dc b9 88 3f 7a 06 92 3f
       1.2615819 1.0380981 1.068172 1.1408226
000010 e0 f5 8d 3f f5 4f 82 3f 60 a3 84 3f 66 bf 8b 3f
       1.109066 1.0180651 1.0362358 1.0917785
000020 e6 8b 7a 3f 7c c9 80 3f eb 7f 95 3f 1d 35 81 3f
       0.9786972 1.0061488 1.1679662 1.0094334
000030 13 bb 86 3f f0 60 92 3f 57 4a 8e 3f 53 67 85 3f
       1.052584 1.1435833 1.1116437 1.0422157
000040 72 17 8f 3f 60 59 80 3f 78 1e 95 3f 9d 64 a1 3f
       1.117903 1.0027275 1.1649923 1.260883
000050 29 53 9d 3f 10 33 8f 3f 64 6d 8a 3f 01 d3 86 3f
       1.2291003 1.1187458 1.0814633 1.0533143
000060 34 e2 85 3f aa 6c 9d 3f f9 ef 89 3f 8b 77 99 3f
       1.0459657 1.2298787 1.0776359 1.1989607
000070 9b 3c 96 3f 0e 9c 9c 3f e2 15 8f 3f e4 47 9e 3f
       1.1737245 1.2235124 1.1178553 1.2365689

layer2.1.bias f4 [32]
000000 4f 84 02 bf 97 71 1f bf 65 49 0e bf 91 c5 18 bf
       -0.50983137 -0.622827 -0.5558074 -0.5967646
000010 d0 42 3a bf 5f 6d dd be d9 56 00 bf c2 ad fc be
       -0.727582 -0.43247506 -0.5013252 -0.49351317
000020 50 22 ca be 38 fb 02 bf 37 fa 0b bf 74 03 11 bf
       -0.39479303 -0.5116458 -0.5467867 -0.56645894
000030 9a 56 e5 be 97 c9 23 bf e7 94 04 bf f1 06 39 bf
       -0.44792634 -0.63979477 -0.51789707 -0.72276217
000040 af 1d d3 be bd 36 16 bf 71 56 23 bf 09 08 00 bf
       -0.41233584 -0.58677274 -0.63803774 -0.5001226
000050 56 84 b9 be c5 e5 b6 be ec ec 2b bf 36 ee fe be
       -0.36233777 -0.35722175 -0.6715839 -0.49791116
000060 0e 67 10 bf 97 07 33 bf a2 f8 26 bf 29 f3 02 bf
       -0.5640725 -0.69933456 -0.65223134 -0.5115228
000070 4d 39 04 bf 02 b2 0e bf 4c ad e1 be d7 9e 3b bf
       -0.51649934 -0.5574037 -0.44077528 -0.73289245

layer2.1.running_mean f4 [32]
000000 9d 68 c1 be cd b4 35 bf 48 89 80 bf 32 d7 48 bf
       -0.37775126 -0.70979005 -1.0041895 -0.7845336
000010 cb b9 15 bf 75 ec d7 bf da 73 4c bc 1c 2a c2 3d
       -0.5848662 -1.6869036 -0.012478793 0.09480688
000020 df 41 d1 3d c0 17 c8 bf 64 9c a1 3e 52 1a 11 bc
       0.10217642 -1.5632248 0.3156463 -0.008856373
000030 04 f7 a4 bf d1 70 44 3e a2 f8 6a be b8 34 d6 3f
       -1.2887883 0.19183661 -0.22946408 1.6734838
000040 02 d2 09 c0 ba c3 9e bf 44 cf e4 bb a6 07 05 bf
       -2.1534429 -1.2403481 -0.006982716 -0.51964796
000050 5a 06 07 be 2c 0f a3 bf 07 12 f7 bf 59 ec bd bf
       -0.13186017 -1.2739005 -1.9302377 -1.4837753
000060 10 5f f0 bd 00 a3 a6 bf a5 f6 cf bf 1e 74 33 bf
       -0.11736882 -1.3018494 -1.6247145 -0.70099056
000070 27 fd 67 bf 31 c4 2c bf f7 c6 3e 40 c7 16 ae bf
       -0.90620655 -0.67486864 2.9808939 -1.3600701

layer2.1.running_var f4 [32]
000000 c5 f7 57 40 f8 e3 3c 40 41 b0 83 40 3a 3c a3 40
       3.3744977 2.951414 4.1152654 5.101102
000010 80 d2 75 40 fa d6 32 40 b5 e0 51 40 28 91 34 40
       3.840973 2.7943711 3.27934 2.8213596
000020 b5 6e 92 40 38 c8 59 40 93 f6 4a 40 61 a3 34 40
       4.576014 3.4028454 3.1712997 2.8224719
000030 d7 9f 36 40 ea 19 7a 40 87 1c 65 40 07 8b 58 40
       2.8535058 3.9078317 3.5798662 3.3834856
000040 fa 1f 86 40 d2 8e 7a 40 e0 ce 7f 40 23 6e 73 40
       4.1914034 3.914967 3.9970016 3.8035972
000050 08 5e c7 40 d0 f9 c5 40 65 7e 75 40 3a 7b 49 40
       6.2302284 6.1867447 3.8358395 3.1481462
000060 ee f2 5c 40 ff e4 86 40 52 b6 4c 40 14 d7 af 40
       3.4523273 4.2154536 3.198628 5.4950047
000070 f7 8e 50 40 59 c8 94 40 38 7e 81 40 16 ff a5 40
       3.258726 4.6494565 4.0466576 5.1873884

fc.weight f4 [10, 1568]
000000 f3 ea e6 bd 45 03 7c be 02 cc 47 be 11 a2 6d 3d
       -0.11275282 -0.24610622 -0.19511417 0.058015887
000010 1f 7f d5 bd 7e 19 d9 bd eb e7 72 bc 50 5b 86 bd
       -0.10424637 -0.106005654 -0.014825801 -0.06560385
000020 86 4e 4c 3d 3f 94 e0 bd b3 34 30 be ea 99 54 bd
       0.049879573 -0.10965776 -0.17207603 -0.051904596
000030 04 21 ac bd 09 f5 67 3d 59 df d1 3d 29 80 0a bd
       -0.08404735 0.056630168 0.10247678 -0.03381363
000040 4f 79 1e 3e e5 93 da 3d c2 03 91 3d bc c2 38 3d
       0.15475963 0.1067274 0.07080795 0.04510759
000050 ee a8 01 3e e8 c5 0e bd 50 d6 0b 3e a8 f5 e3 3d
       0.12662098 -0.034856707 0.13655972 0.111308396
000060 e8 68 a3 bd 0d a6 b6 bc 1f 18 11 be b9 79 06 bc
       -0.07978994 -0.022295976 -0.14169358 -0.008207732
000070 7d 09 99 bc 29 55 cd bd cc 19 a7 bd db 87 6c be
       -0.018681282 -0.10026009 -0.08159217 -0.230987
000080 21 a9 3a be ae 98 83 bd 5e bf 88 bc f6 06 e1 3d
       -0.1822858 -0.06425606 -0.016692813 0.10987656
000090 d3 cc 92 3c 1e 08 1d be f1 42 f1 bd af b3 34 be
       0.017919933 -0.15335128 -0.11780346 -0.17646669
0000a0 6f 47 58 be 17 ea 01 be fe 95 4f 3d d6 4a c6 bd
       -0.21121 -0.12686954 0.050680153 -0.096822426
0000b0 6a 08 8e 3c 4c 7a 10 3d e1 24 79 3d 25 ce 48 3d
       0.017337997 0.03527288 0.060826186 0.04902472
0000c0 f2 05 5d be 3b da 52 bd e0 22 28 3c 89 4c 83 bd
       -0.21584299 -0.051477652 0.010262221 -0.06411082
0000d0 ab 82 0c 3c 35 9e 21 3d 2d a9 bb bd 31 77 08 3d
       0.008576076 0.03945752 -0.09163127 0.033316795
0000e0 af 25 1b 3d 79 7f 3f be 7e 42 37 be e8 b9 f5 bc
       0.037877735 -0.1870097 -0.17896459 -0.029995874
0000f0 6a 24 d9 bb b1 7c 13 bd 70 c8 8c 3d bc 5d 50 bd
       -0.0066266553 -0.036007587 0.06874168 -0.050870642
000100 34 60 d4 3d b2 ae 5f bd 56 7d 1b bd b4 58 af bc
       0.10369912 -0.05460996 -0.037961327 -0.021404602
000110 6e 9b 9f bd d8 ad 5b bd 3e 27 18 be d3 61 af be
       -0.07793318 -0.053632587 -0.1485872 -0.3425432
000120 47 f3 00 bf 0f 15 06 be c9 0a 04 3c 48 e0 e9 3d
       -0.5037121 -0.1309397 0.008059212 0.114197314
000130 4d ae 8c bc 8f 5d 80 3d fb e2 b8 3d 51 13 aa 3d
       -0.017172957 0.06267845 0.09027668 0.083044656
000140 ef 77 25 bd f3 89 bb 3b 24 2e ad bd b7 ec 0b be
       -0.04039758 0.005723232 -0.08456066 -0.13664518
000150 c4 7a c8 3d 34 54 cd bc 9f a4 18 3e 6b d1 40 3d
       0.09789041 -0.025064565 0.14906548 0.047074717
000160 19 3a 9f bd 39 a8 9c be 71 f9 d7 3c 2b dd be 3d
       -0.07774753 -0.30597094 0.02636406 0.09319528
000170 be 33 3d bc a4 99 fb 3d d6 25 37 3e 44 8f ae be
       -0.011547981 0.12285164 0.17885527 -0.34093678
000180 e8 af 9d be 7a e5 63 bd fa bc b8 3c a5 b1 a4 3c
       -0.30798268 -0.055638768 0.022551049 0.020104239
000190 ae 81 bf bc 09 06 ee 3d cf 4f 30 bd 42 59 92 bd
       -0.023377266 0.11622245 -0.04304486 -0.07145931
0001a0 1d 25 46 3d 9e 7f 15 3e 38 1a e9 bc 67 3f 41 bd
       0.048375238 0.14599463 -0.028454885 -0.047179606
0001b0 16 84 d5 bd 7d 65 42 be 58 fb 8b 3d 15 d9 2c 3d
       -0.10425584 -0.18984027 0.068350494 0.042199213
0001c0 6a 4b 88 3e b8 2d 53 3e 95 04 ce bc 1a ed f5 3d
       0.26620036 0.20622909 -0.02514867 0.12008114
0001d0 c4 52 dc 3a fd d9 e0 38 0a b4 a8 bc 28 d3 53 3d
       0.0016809334 0.00010721756 -0.020593662 0.051715046
0001e0 a4 10 84 3d 40 0d 39 3e d1 36 15 3e e8 9f 87 be
       0.064484864 0.1807146 0.14571692 -0.26489186
0001f0 ff fb 18 3e 5a db 5e 3c ac c9 36 be ab bf cf 3d
       0.14939879 0.013602102 -0.17850369 0.1014398
000200 cd 8b b2 3e d3 ac 5a bd 73 36 0a bb ee f1 de 3d
       0.34872285 -0.053387474 -0.0021089583 0.10885988
000210 2e 53 6a be 71 91 d1 3d d7 8c b4 bd 97 cc 30 be
       -0.22883293 0.10232819 -0.088159256 -0.17265545
000220 e7 63 29 3d 6d d7 a3 bc f7 79 34 3e 38 a3 77 bd
       0.04135504 -0.020000184 0.17624651 -0.060458392
000230 c2 1f c7 3d cb e5 c8 3d 07 f8 da be d7 91 07 bf
       0.09722854 0.098094545 -0.42767355 -0.5295691
000240 3b 0c 19 be 66 89 f8 bd 1b c3 d7 3d 62 25 99 bc
       -0.14946072 -0.12135582 0.1053526 -0.018694583
000250 af 17 01 bd e7 6c b8 bd 78 ca 01 3e 7f f0 29 3d
       -0.031516727 -0.090051465 0.12674892 0.04148912
000260 8c 59 6d 3e 89 dc a9 bd c4 68 81 3d aa 95 e0 bb
       0.2317869 -0.08294017 0.063188106 -0.006853779
000270 45 4e 01 3e 53 54 54 3e fa b4 62 3d f6 4c e1 bd
       0.12627514 0.20735292 0.055348374 -0.11001007
000280 68 4e 6b bc ac 5a fa 3d fc e2 ab 3d e3 8e 03 be
       -0.014361955 0.122243255 0.08392903 -0.12847476
000290 4b 80 47 be 83 25 12 bd b2 9f 6d be 72 42 5c be
       -0.19482534 -0.035680305 -0.2320545 -0.21509722
0002a0 2b d9 00 3e 04 9e ee 3d 52 61 af be 9c b6 8b 3d
       0.12582843 0.11651233 -0.34253937 0.06821939
0002b0 90 e8 8e 3c 32 22 5c be eb 5c f9 3d 78 1c ff 3c
       0.017444879 -0.2149742 0.12175926 0.031141505
0002c0 dc 0a c6 bd 03 12 13 bd a0 71 41 3b 85 a9 68 3e
       -0.0967004 -0.03590585 0.0029517189 0.22720917
0002d0 78 c0 3b 3e 66 5e 22 3e 9a f3 0e 3c 83 9d 43 be
       0.1833514 0.15856323 0.008725071 -0.19103055
0002e0 00 05 c3 be a7 d1 c9 3e bf 71 74 3e 60 ef 2b 3d
       -0.38089752 0.39417765 0.23871516 0.041976333
0002f0 9c e5 20 3e 05 cd 8f 3d f3 95 b1 bd 27 7a 9e be
       0.15712589 0.07021526 -0.08671179 -0.3095257
000300 87 bd 59 bd f6 67 b7 bb c0 5f 06 bd 6f 9c 56 3d
       -0.053159263 -0.00559711 -0.032806158 0.05239528
000310 ea 03 f6 3d 75 b9 94 bc 4f 2d 40 be ab 79 a7 3d
       0.12012465 -0.018154839 -0.18767284 0.08177503
000320 42 e0 c3 3d f5 66 8f 3d a3 76 f0 3d 71 a6 b2 3c
       0.09564258 0.07002059 0.11741378 0.021807881
000330 58 64 1b be e7 70 b8 3d ba f1 d2 3c e0 3d 51 3e
       -0.15174997 0.090059094 0.02575003 0.2043376
000340 8e 2d 9f bc 5f 0a 89 bd 1f df 80 bd 85 ea 2c be
       -0.019430902 -0.06691431 -0.06292557 -0.16886337
000350 aa 60 55 be 01 4d cf bd 5b ee ff bc 01 c3 c3 be
       -0.20837656 -0.10122109 -0.031241586 -0.38234714
000360 53 85 9c be a7 84 e7 bd 35 cc 9b be 88 18 47 be
       -0.30570468 -0.11304598 -0.30429235 -0.19442952
000370 9e ec 0c be 00 4c 0a 3e 44 f4 80 bd 87 1d 5c 3d
       -0.13762137 0.13505554 -0.0629659 0.053739097
000380 ef e7 8f bd 64 d7 3e 3d 18 d7 cc bd 78 86 fa 3d
       -0.0702666 0.04659213 -0.100019634 0.12232679
000390 98 fb 58 3e e8 fd 01 3e ce 36 41 3d 15 8f c1 bb
       0.21189725 0.12694514 0.047171406 -0.0059069493
0003a0 a8 53 d9 3c 9d ef f5 bc af 2c 1c 3e a4 a2 5e bc
       0.026529148 -0.030021483 0.1525142 -0.013588581
0003b0 76 25 14 bc 71 f4 18 3d e0 d0 b7 bd 17 37 46 bd
       -0.0090421345 0.037342492 -0.089753866 -0.04839238
0003c0 d9 5c 81 3d 8f c0 01 bf d3 98 0d be 67 9c 67 bc
       0.063165374 -0.50684446 -0.13827829 -0.01413641
0003d0 07 22 84 bd 23 7b df 3d 23 36 93 bd 40 ab 50 bd
       -0.06451803 0.10912158 -0.0718806 -0.050944567
0003e0 0c c5 7a bd 06 71 ec bb b6 af 6b bd 2d 1a 44 3d
       -0.061223075 -0.007215622 -0.057540618 0.047876526
0003f0 b4 4c af 3b ec 35 62 3c b0 99 dd bd 9f 62 ce 3d
       0.00534972 0.013806801 -0.10820329 0.10077404

fc.bias f4 [10]
000000 23 6b 24 3d 81 fc df 3d 23 20 c9 bc 18 73 70 bd
       0.040141236 0.10936833 -0.024551457 -0.058703512
000010 86 76 40 bd 15 08 1c bc 65 ab 09 bd 4d 06 c0 3c
       -0.046988033 -0.009523411 -0.03361072 0.023440504
000020 64 37 f2 ba 98 03 d7 bc
       -0.0018479642 -0.02624683
