AI/pytorch/model.ckpt (torch, 122031 bytes, 14 tensors)

layer1.0.weight f4 [16, 1, 5, 5]
000000 62 36 17 3e de 9a 26 be 9e e3 8e be a9 be 8f bd
       0.14766839 -0.16270015 -0.27908033 -0.070187874
000010 00 8b 65 be a6 bf 02 3d b0 d9 27 3e 50 81 dd bd
       -0.22416306 0.03192105 0.16391635 -0.1081568
000020 a9 94 b7 3d 1a cc 62 be d3 6b 70 bc e3 88 77 3e
       0.089639015 -0.22148171 -0.014674145 0.24173312
000030 bf 35 6c 3e bf 5a 09 be b4 68 31 bd 0c b3 4a 3e
       0.23067378 -0.13413523 -0.043312743 0.19794863
000040 05 39 84 bd f1 ed ab 3e f4 9f 73 3e a0 94 e2 3d
       -0.06456188 0.33579972 0.23791486 0.11063504
000050 b0 08 da bd a8 49 07 be 8b 49 24 be 12 e2 49 3d
       -0.10646188 -0.13211691 -0.1604368 0.049287863
000060 27 5a 8a 3d f4 c8 b4 bc 06 88 91 bc 63 dd e3 be
       0.067554764 -0.022068478 -0.017765056 -0.44504842
000070 65 22 1d be b6 5b 7d 3e 66 e9 fa bd 9a d2 1c be
       -0.15345152 0.24742016 -0.122515485 -0.15314713
000080 cf 6c 5d be 88 20 03 3e 58 e8 e9 3d cc f5 36 be
       -0.21623538 0.12805378 0.11421269 -0.17867202
000090 3c af d7 bd 92 a8 b4 be d3 69 49 3e 07 01 2f 3e
       -0.1053147 -0.3528486 0.19669275 0.17090236
0000a0 a1 75 aa 3d b5 d8 43 be 4f 2d 35 be 20 e5 6a bd
       0.08323217 -0.19125636 -0.17693065 -0.057347417
0000b0 98 e7 b0 3d fe 65 10 3e 3a f2 13 be 06 a8 18 be
       0.08637923 0.14101407 -0.14447871 -0.14907846
0000c0 fc f8 ef bd 65 6c ba 3d a6 a0 0c bd c2 8d 4e bd
       -0.11717412 0.09102706 -0.034332894 -0.05042816
0000d0 fc ee fd 3d ca 8e d9 3a 67 7a e8 3c 29 38 52 3c
       0.12399098 0.0016598341 0.028378678 0.012830772
0000e0 2c 34 97 be a2 34 49 3e 29 35 31 bd e4 c9 3a 3d
       -0.2953199 0.19648984 -0.043263588 0.045602694
0000f0 72 99 8f bc 2e fa a4 be 30 d4 99 bd c4 46 d5 3d
       -0.017529223 -0.32222122 -0.07511175 0.10413888
000100 b0 90 1c 3e 97 05 63 3e 16 dd 74 be 34 9c d9 be
       0.15289569 0.22170101 -0.23912463 -0.42501986
000110 5b c7 c1 bc 28 f6 90 3e cd fb 34 3e 68 66 49 3e
       -0.02365463 0.28312802 0.1767418 0.19667971
000120 33 ff 53 be 81 0e 73 be 95 b2 35 be 18 d0 82 bd
       -0.2070282 -0.23736002 -0.17743905 -0.06387347
000130 7c 64 95 be a6 39 0e bd 2a 66 ac 3d 0a 34 65 bd
       -0.29178226 -0.034722947 0.08417924 -0.05595783
000140 f0 f2 f4 bd 22 21 eb 3b 85 c6 85 bd c1 4b 66 bd
       -0.11960399 0.0071755806 -0.06532005 -0.05622459
000150 76 1a 3a 3d fc 80 0e be 6f 78 49 3e eb aa b1 3e
       0.04543539 -0.13916391 0.19674848 0.34700713
000160 a9 df 92 3d 02 9b 03 bd 7b 6d 5c 3e da cf 4f 3e
       0.07171566 -0.03213025 0.21526138 0.20294133
000170 4d f1 91 bd 4f 7f 9d be 08 a4 70 bc b3 73 05 be
       -0.071261026 -0.3076119 -0.014687546 -0.13032417
000180 50 91 9d be 71 f8 78 be 75 67 ef bd 15 0f 4f 3e
       -0.30774927 -0.24313523 -0.11689655 0.20220597
000190 7c 1e 8a be d2 8c 53 be 78 2b bc bd a5 a1 72 bc
       -0.26976383 -0.20659187 -0.091879785 -0.014809047
0001a0 5d 8f 8e 3e 21 25 de 3c 77 60 a8 3e 27 61 0b 3e
       0.27843753 0.027117314 0.32886097 0.1361128
0001b0 f7 77 1a 3e 95 9d 94 3e 93 8a 23 3e 76 87 0c 3e
       0.15084825 0.29026476 0.1597083 0.13723549
0001c0 25 58 94 3c 40 f0 59 3d f1 63 d0 bb 6b 58 ad 3d
       0.018108437 0.053207636 -0.00635957 0.0846413
0001d0 a2 e7 e8 bd 7a 2c 88 bc c5 36 cd 3c 48 67 9b be
       -0.113723055 -0.01662277 0.02505053 -0.30352235
0001e0 85 b3 3d bd a2 03 9e bd ca 64 33 be b2 60 ad be
       -0.04631378 -0.07715537 -0.17518917 -0.33862835
0001f0 fd d8 65 be fa 6f 01 be 8d 33 8f be 17 74 a8 3d
       -0.22446056 -0.12640372 -0.27969018 0.082252674
000200 40 c1 91 3d 37 f6 1c 3e 0b f3 b3 be 39 5e b2 bd
       0.07116938 0.15328299 -0.35146365 -0.08709378
000210 5c c7 2e 3e 56 7d 8a 3c 52 93 1c 3e 33 ce 9c be
       0.17068237 0.016905468 0.15290573 -0.30626068
000220 9c d9 9b be 25 f4 58 3e 51 e5 60 3e da 42 98 bd
       -0.3043946 0.21186884 0.21962477 -0.07434626
000230 4f f8 c1 bd 78 28 9d be 17 a1 17 3c 18 18 64 3e
       -0.09471189 -0.30694938 0.009254715 0.22274816
000240 53 d8 59 bc 52 00 d4 bc 79 bc 10 be 0f 2e 7d be
       -0.013296205 -0.025879059 -0.14134397 -0.24724601
000250 b2 63 dd 3d ef 9b 50 3c 7b 2b 13 bb b7 83 48 b8
       0.10810031 0.01273249 -0.0022456336 -4.7806385e-05
000260 85 0c 9c 3d 46 95 46 3c f6 e0 78 be 20 b1 89 3d
       0.076195754 0.0121205505 -0.24304566 0.06723237
000270 81 35 0f 3e d0 02 0b bc 3e 6e 2d be b1 73 9f be
       0.13985254 -0.008484557 -0.16936585 -0.31142953
000280 fb 5d fa bd e9 1a 9b bd 49 5e c7 3e 2f 68 e1 3e
       -0.122249566 -0.07573492 0.3893912 0.44024798
000290 d5 f6 d8 3d 3e 52 af 3c db 2a 9a be 0a 55 02 bd
       0.105939545 0.02140152 -0.3011082 -0.03181938
0002a0 05 ed 40 3d 57 5b 4c bc 9d 03 2a 3d c1 2b e6 bd
       0.04710104 -0.012472949 0.041507352 -0.11238814
0002b0 63 1d 1d be 95 98 10 be 77 f9 35 3e 6b 00 c9 3e
       -0.15343241 -0.14120705 0.17770945 0.3925813
0002c0 19 89 79 be da 2c 9a be a5 6b c4 bb 1e 6b 2c be
       -0.24368705 -0.30112344 -0.0059942775 -0.16837737
0002d0 0e 4c 6d 3e b3 ee dd bd 71 2c f6 3b 06 60 1d 3e
       0.23173544 -0.10836544 0.007512622 0.15368661
0002e0 bd bb 9f 3e 13 c6 1d bd 40 5b 44 3c 4b ce e4 3d
       0.3119792 -0.038518976 0.011984646 0.1117216
0002f0 19 a5 c4 3b 8c a2 76 3d ea b2 04 3e 0e 23 2b 3e
       0.0060011265 0.06021361 0.12958875 0.16712591
000300 7c b3 09 be 0c 2a 8b be 9b 73 31 3e 28 0f 47 3e
       -0.13447374 -0.27180517 0.17329256 0.19439375
000310 f1 69 e1 3c fa c3 83 bd f4 45 99 3d f7 81 50 bd
       0.027516337 -0.06433864 0.074840456 -0.050905194
000320 c2 42 01 3e d1 0e 72 be 1a 70 6b 3e 7a 72 82 3e
       0.12623122 -0.23638465 0.22991982 0.25477964
000330 17 60 48 be cd a2 0c be a9 1a c5 3d ea 5c ef bd
       -0.19567905 -0.13733979 0.09624226 -0.11687644
000340 82 10 7a be 70 b2 88 be 6d 25 97 be 32 77 18 3d
       -0.2442036 -0.26698637 -0.2952074 0.03722305
000350 66 69 5e 3e 3d 19 ae bc d7 9e b8 3e 70 e4 e9 bd
       0.21719894 -0.021252269 0.36058685 -0.11420524
000360 9c c9 17 be 55 e5 ab bc 92 5e 95 bd 06 66 ba 3d
       -0.14823002 -0.020983377 -0.072934285 0.09101491
000370 54 b0 00 3e c6 a8 1a be 53 83 4a 3e 87 84 90 be
       0.12567264 -0.15103444 0.19776659 -0.2822611
000380 4b 7f 35 bd db 84 d2 bc 20 e5 b6 be 18 3e 18 3e
       -0.04431085 -0.025698116 -0.35721684 0.14867437
000390 95 50 0f bd be f5 17 3a b1 e6 63 be 86 99 58 be
       -0.03498896 0.00057968113 -0.2225597 -0.21152315
0003a0 a0 24 33 3e 7d d6 5e 3e 5b 3b 3a bd 25 4b d1 be
       0.1749444 0.21761508 -0.045466762 -0.40877643
0003b0 e9 5d 8e be ff e5 f5 bd 71 ef ba 3d c1 af 2a be
       -0.27806023 -0.12006759 0.09127701 -0.16668607
0003c0 12 e1 00 bd 3b 69 2b bc f6 b7 61 3e 58 cd ba 3d
       -0.031464644 -0.010462101 0.22042832 0.091211975
0003d0 a4 88 30 be 0a 04 32 be 9d 50 53 3e c6 73 7b 3e
       -0.17239624 -0.17384353 0.2063622 0.24555883
0003e0 a8 be 23 be 22 86 34 3d 21 8f 9c 3c 91 6c 04 3d
       -0.15990698 0.04407323 0.019111218 0.0323301
0003f0 8d f4 d0 3c da e8 d3 bc b0 74 ad be c3 a2 89 3d
       0.025507236 -0.025867868 -0.33878088 0.067204975

layer1.0.bias f4 [16]
000000 2a a3 82 bd 5b 82 2f 3e ec b1 8b bd 99 8a 6f be
       -0.06378777 0.1713957 -0.06821045 -0.23392715
000010 75 7a e8 3d bf ab 5f 3d 5b e5 3d bd 1f 8d 20 be
       0.11351482 0.05460715 -0.04636131 -0.15678833
000020 79 21 84 be f0 02 67 bd 07 b3 89 be 5d 5c 0f 3e
       -0.25806788 -0.056399286 -0.268944 0.14000078
000030 d8 13 4e bb c4 e3 8c bd 28 2a c6 bd 5d e2 48 3e
       -0.0031444933 -0.0687938 -0.096760094 0.196176

layer1.1.weight f4 [16]
000000 39 50 4d 3f 74 62 a2 3f c8 41 ab 3f 50 a0 83 3f
       0.80200535 1.2686296 1.337945 1.0283298
000010 e9 7a 23 3f f2 8a 51 3f 90 63 5e 3f 72 17 12 3f
       0.6385942 0.8185264 0.8687067 0.57067025
000020 52 8f 94 3f 93 b5 46 3f 20 2d 03 3f 15 76 36 3f
       1.1606238 0.7762081 0.5124073 0.7127393
000030 6a e7 b3 3f 27 2d 60 3f fa 3a 7a 3f 6a 25 af 3f
       1.4054997 0.87568897 0.9774624 1.3683293

layer1.1.bias f4 [16]
000000 92 5c 06 bf 91 d6 42 be a1 ee 45 be 93 98 19 be
       -0.52485 -0.19027163 -0.19329311 -0.14999609
000010 f3 b6 c3 be 8f 88 b2 be 73 28 fe be c6 3b 49 bf
       -0.38225517 -0.3486981 -0.49640235 -0.7860683
000020 c2 39 98 be 27 7e 6f be e5 e8 2b bf e5 41 28 bf
       -0.29731566 -0.23387967 -0.67152244 -0.6572555
000030 ae d8 19 be 76 10 ce be c2 97 b4 be 1c 70 ad be
       -0.15024063 -0.40246934 -0.35272032 -0.33874595

layer1.1.running_mean f4 [16]
000000 ae 73 0c bd 7d 34 a5 bb 98 4f 16 be 44 d3 a5 be
       -0.03429001 -0.0050416575 -0.146788 -0.32387745
000010 69 0e b2 3d 1f bd 86 bd 11 4a 89 bd e8 65 8e bd
       0.08694155 -0.06579041 -0.0670358 -0.06953031
000020 48 32 ad be b6 e5 3e be 89 94 18 be 44 b0 2b 3e
       -0.33827424 -0.18642315 -0.14900412 0.16766459
000030 4a ed f4 bd bb d7 06 be 05 a1 65 be 6f 99 72 ba
       -0.11959322 -0.13168232 -0.22424705 -0.0009254431

layer1.1.running_var f4 [16]
000000 40 cc 4e 3d 47 13 3e 3e 83 42 78 3d 11 57 3d 3d
       0.050487757 0.18562041 0.060610306 0.04622561
000010 4b 27 cf 3d f7 b2 2b 3e 14 70 dd 3c b6 05 2e 3d
       0.101149164 0.16767488 0.027030982 0.042485915
000020 af ce fc 3c 0e f3 f5 3d 4b 7b 9c 3d 7f 58 40 3d
       0.030860273 0.1200925 0.07640704 0.046959396
000030 38 1f 04 3e bc 51 57 3d f3 5d 4f 3e 8f af 4e 3e
       0.12902534 0.052568182 0.20250683 0.20184158

layer2.0.weight f4 [32, 16, 5, 5]
000000 b0 f3 0d 3e 98 03 3e 3d e2 0a d3 bd 98 e0 46 be
       0.1386249 0.046390146 -0.1030481 -0.19421613
000010 09 ac 49 bc 10 37 53 3e db ca 3b 3e e1 ad ab 3d
       -0.012309083 0.20626473 0.18339102 0.08382774
000020 29 22 c4 bc 2d ad b3 bd 73 ca 0c 3e b4 6d 03 3e
       -0.02394207 -0.08773265 0.13749103 0.12834817
000030 31 d9 f2 bd fb 64 8c be 80 57 04 bb bb c5 a7 3c
       -0.11857832 -0.27420792 -0.0020193756 0.020480027
000040 d3 97 01 bd 27 dd 08 be e5 47 22 be c3 df 60 bd
       -0.03163893 -0.13365613 -0.15847738 -0.054900896
000050 07 49 38 be 57 37 d0 bc cb c2 5a 3d 82 3e b5 3c
       -0.17996608 -0.025417013 0.053408425 0.022124533
000060 49 7a bf 3d 76 6a 29 bd 7f 49 01 3e df 55 1b 3e
       0.09349496 -0.041361295 0.12625693 0.15169476
000070 ea 1b 2f 3d 94 4f b3 bd 23 0d ef bd 3d 2a 8b 3c
       0.04275123 -0.08755413 -0.116724275 0.016987914
000080 4e 19 84 bd 40 09 2e 3e 9a b6 d4 bd 59 92 10 be
       -0.06450139 0.16995716 -0.10386391 -0.14118327
000090 8c c9 08 3e 3c d4 dd 3d e3 96 75 3e 6e f5 12 be
       0.13358134 0.10831496 0.2398334 -0.14351436
0000a0 49 6b 12 3e 68 c9 5c 3d c4 f3 be 3d ce 04 ca 3d
       0.14298739 0.053903013 0.09323838 0.09864198
0000b0 a0 34 91 bd ab 4a 62 3e 87 9e 26 3d 93 eb 28 3e
       -0.070901155 0.22098796 0.040678527 0.16496114
0000c0 04 89 b6 bd 4d 9a 4e be 16 2f c5 3d cb ec 43 bd
       -0.089128524 -0.20176049 0.096281216 -0.047833245
0000d0 8d 15 ce bd ec 54 d2 bd 0f 72 54 bd 78 51 16 3d
       -0.10062704 -0.10270104 -0.051866587 0.03669879
0000e0 e0 9d 2d 3d 43 0a 92 3d 17 f9 52 bc 52 13 31 bd
       0.04238689 0.071308635 -0.01287677 -0.043231316
0000f0 e6 57 ce bd fe 84 5c be ab e8 8a 3d 8b aa 1a be
       -0.10075359 -0.21535107 0.06782659 -0.1510412
000100 2d 7f 1b 3e 15 e6 24 be d1 23 f1 bd 48 dc ad 3d
       0.15185232 -0.16103394 -0.117744096 0.08489281
000110 d0 fd 33 bd ff f3 e5 3d f2 37 fa bd 8a fb 42 be
       -0.043943226 0.11228179 -0.12217702 -0.19041267
000120 0a ac 70 3d 5a d7 df bc 45 4b 21 3e 9d 08 0a be
       0.05875782 -0.027324367 0.1575137 -0.13479848
000130 17 34 ae bd 9d 9e 5d 3c da 96 9d bc b5 d7 b7 bd
       -0.08506029 0.013526586 -0.01923697 -0.0897669
000140 e7 76 07 3d 81 bf ae 3c 60 e6 a5 3c 2e 38 b5 bd
       0.03307238 0.02133155 0.020251453 -0.08848606
000150 9b 5a b5 3d 97 ab 4e 3e 67 14 5b bc b7 d0 57 3e
       0.08855172 0.20182644 -0.0133715635 0.21075712
000160 dd df 8e be 20 30 4f 3c e6 95 d7 bc a3 ff 51 3c
       -0.2790517 0.012645751 -0.026316594 0.012817296
000170 46 aa 7f 3e ef 3e 7e be 6b f1 03 be fa 48 65 3b
       0.24967298 -0.24828695 -0.12885062 0.0034986124
000180 20 89 90 3d 62 cd 0f 3e c4 ae 35 bc fa 78 88 3d
       0.070574045 0.14043191 -0.011089031 0.066636994
000190 35 bb a1 be 53 3c 1c be 97 95 00 bc ab ea 29 3e
       -0.3158814 -0.15257387 -0.007848165 0.16593425
0001a0 51 13 a3 3d 1f 14 03 3e a6 d2 d8 3c 78 c4 62 3b
       0.07962669 0.12800644 0.026467633 0.0034601968
0001b0 f3 d9 10 3e 95 8e fc 3d cb e9 82 bc 36 3a 89 bc
       0.14145641 0.12331883 -0.015980622 -0.01675139
0001c0 67 7d 1b bd fd 35 3b bd 4d a1 97 3d 5b 7e 27 be
       -0.03796139 -0.045705784 0.074038126 -0.16356795
0001d0 29 33 dc bc 4a 0c 87 3c cc 3d df bd 0f 64 2b bd
       -0.026879864 0.016485352 -0.10900459 -0.04184347
0001e0 71 cd 0f be 6b 69 e8 bd 95 e1 4a bd 75 69 72 3d
       -0.14043213 -0.11348232 -0.049531538 0.059182603
0001f0 4a c8 30 bd 5a 44 18 3d 28 59 09 3c 54 71 ad 3d
       -0.04315976 0.03717456 0.008383073 0.08468881
000200 6e 6b 89 3e 05 3a ce bc f0 57 34 be 26 5f d4 bc
       0.26839775 -0.02517415 -0.1761167 -0.025924277
000210 e7 28 29 be 67 52 e0 3d 5b 33 07 bd f1 63 a7 be
       -0.1651951 0.10953217 -0.03300796 -0.32693437
000220 c8 ec 0f 3d 3c fa 83 bc 6c fe 21 3e b6 0a c6 bd
       0.03513792 -0.016110532 0.1581971 -0.09670012
000230 cc 6e ba 3d d9 30 f6 3d 50 76 9f 3d f8 c9 83 3d
       0.09103164 0.12021036 0.07786238 0.06435007
000240 53 20 7d be 23 03 d8 3d 33 a4 3c 3d 2b 1b a6 3d
       -0.24719362 0.10547473 0.04605503 0.08110651
000250 47 26 07 3e 80 bc ed bd f0 a9 f1 3c b0 37 5a bd
       0.13198195 -0.11608219 0.029499978 -0.053275764
000260 07 79 71 bd d0 5c 82 3d 72 cf 0b bd 4a 9e a3 3c
       -0.05895331 0.06365359 -0.034133382 0.019972939
000270 bd b8 8f 3d bc e9 32 3d a2 0b b2 bd a4 39 2e 3d
       0.07017658 0.043679938 -0.08693625 0.04253544
000280 8a 34 17 bc f4 ba 0e 3d 44 2d 8f bd 2d 03 4e bd
       -0.009228835 0.03484626 -0.069910556 -0.050295997
000290 bc 07 9b 3d cd 32 0a 3c 6a 10 20 be 71 ca 44 be
       0.075698346 0.008434963 -0.15631261 -0.1921785
0002a0 bf 93 fd bc e8 4f 18 3e 80 22 39 be 8a 24 78 3d
       -0.03095424 0.14874232 -0.18079567 0.06058172
0002b0 6c 0d ad bd c6 85 73 3d df f5 36 3a eb 49 8c bd
       -0.08449826 0.05945375 0.00069793867 -0.06850036
0002c0 1c e2 a4 3d 72 9a f5 3c 5f 6f 09 3e 46 da 5d 3e
       0.080509394 0.029980872 0.13421391 0.21665296
0002d0 45 0e 3c 3e 3d 1d a3 3d a7 a0 b3 3d 48 b2 33 bd
       0.18364818 0.07964561 0.087708764 -0.043871194
0002e0 51 e1 bc bc 0f c3 ec 3d 5f 8e 36 3e 07 9f b7 3d
       -0.023056658 0.11560642 0.17827748 0.08965879
0002f0 a0 b2 8e bd ad 80 46 3d 34 49 fe 3c cc 0a 9d 3d
       -0.06967664 0.04846256 0.031040765 0.07668075
000300 33 2d b8 3c f3 a3 29 be 79 01 0a bd 05 11 11 3d
       0.02248249 -0.16566448 -0.03369281 0.03541662
000310 57 be 20 be 3b 8a 12 3d d9 5f 5b 3c 0e 12 73 3e
       -0.15697609 0.035776358 0.013389551 0.23737356
000320 f1 03 d9 bd 99 2d 71 bd 82 27 32 be 19 04 cf bd
       -0.10596455 -0.058881376 -0.17397884 -0.101082034
000330 66 0c c0 bc 1c 1d 3a 3e f3 b9 06 bd 52 92 c0 bd
       -0.023443412 0.18175167 -0.03289218 -0.094029084
000340 85 ed 5c bd 56 c5 08 bd 6b 3c c5 bb be 7e d5 bd
       -0.053937454 -0.03339132 -0.0060191653 -0.10424565
000350 83 89 4a be af be 6f be 40 4e 6c bd a6 8e 2a 3e
       -0.19779019 -0.23412584 -0.057691813 0.16655979
000360 ca ea f7 bd 18 d4 2c be 4b 34 61 3e 3f 5c a9 3d
       -0.12105329 -0.16877782 0.21992604 0.08269548
000370 81 a8 db bc 9f 52 b7 3d 94 44 52 bd 53 8f 94 3e
       -0.026813747 0.089513056 -0.051334932 0.29015598
000380 6b 17 d0 bd 1b 90 5b bd 0a bf e2 bd 9f 0d 6d 3c
       -0.101607166 -0.053604227 -0.11071594 0.01446858
000390 ae 80 b3 3c 62 e6 f0 bd 47 4a 3d be d4 9d b4 bd
       0.021911945 -0.11762692 -0.18485366 -0.08819166
0003a0 b9 29 2d 3e 59 ee aa bd 1c b8 9d 3d 29 6e 5f be
       0.16910447 -0.083462425 0.07701132 -0.21819367
0003b0 ba 22 26 3e 46 01 4a 3d 5d 76 ba 3d 91 c6 3a 3d
       0.16224185 0.04931762 0.09104607 0.045599524
0003c0 1f 7c 7a 3d 3c f2 a5 3e fc c4 4d be e9 1b e6 3d
       0.061153527 0.32411373 -0.20094675 0.11235792
0003d0 ea c0 86 bd b0 71 01 3e 0b 4e 47 3e af 2f d4 3c
       -0.06579764 0.12641025 0.19463365 0.025901644
0003e0 ba 7b 3f 3e 59 06 59 be f0 01 9e 3d 2b fd 8d bd
       0.18699542 -0.21193828 0.07715213 -0.069330536
0003f0 58 32 7b 3d 63 0a df 3d b5 01 78 3e 79 88 3f 3e
       0.06132731 0.10890653 0.24219401 0.18704404

layer2.0.bias f4 [32]
000000 83 3a d5 3b 9e 78 b9 3c 30 b5 52 3d cf 8d 1f bc
       0.0065072193 0.022640523 0.051442325 -0.0097384
000010 70 ad 99 bb 93 80 19 3d 17 93 d3 bc bb 12 c3 3c
       -0.004689865 0.037476134 -0.025826974 0.023812642
000020 de 73 02 bd 4d 90 79 3c da 36 0f bd ab be a1 39
       -0.03184878 0.015232158 -0.03496442 0.00030850372
000030 3c 87 19 bd d3 27 0b bc b0 64 dd 3c c9 d4 c6 bb
       -0.037482485 -0.008493382 0.02702555 -0.0060678464
000040 59 df 8a 3c 7c fb 59 bd 32 e4 12 bd ff ac f2 3c
       0.016952204 -0.05321835 -0.035862155 0.029623507
000050 93 89 1e bb 3a d9 1f 3d 3c 2a c5 bc 8d 32 12 bd
       -0.0024190887 0.039025523 -0.02406799 -0.03569274
000060 19 37 4a bd ca f2 4d bd 45 d3 56 3c 0f 66 4f bd
       -0.04936895 -0.05028037 0.013111894 -0.05063444
000070 57 51 a7 3c 11 ea 82 3c 86 55 4e 3d a7 6c 2e bc
       0.020424528 0.015980752 0.05037453 -0.010646022

layer2.1.weight f4 [32]
000000 61 5c 98 3f b7 4c 87 3f e1 37 80 3f 0d 64 8e 3f
       1.1903192 1.0570287 1.0017053 1.1124283
000010 7c 40 89 3f da bb 7f 3f 9b 10 90 3f 52 fd 96 3f
       1.0722804 0.99896014 1.1255068 1.1796057
000020 41 57 97 3f 2a 4a 8b 3f 4f 57 95 3f e0 12 75 3f
       1.1823503 1.0882008 1.166727 0.95731926
000030 88 cf 97 3f ba b0 8f 3f da 58 8a 3f 7c 9f 88 3f
       1.1860209 1.1225808 1.0808365 1.0673671
000040 e9 ac 92 3f f7 09 8d 3f f1 27 95 3f 2c 22 8c 3f
       1.1459018 1.1018666 1.1652814 1.0947928
000050 4f c4 93 3f f5 46 95 3f 89 29 99 3f e9 1b 9a 3f
       1.1544284 1.1662279 1.19658 1.2039768
000060 f2 a5 a6 3f 27 c2 ab 3f 63 e2 7c 3f af b1 94 3f
       1.3019392 1.3418626 0.9878294 1.1616725
000070 0d 7a a7 3f 4e 41 94 3f f0 7d 8a 3f 6b 47 80 3f
       1.3084122 1.158243 1.0819683 1.0021795

layer2.1.bias f4 [32]
000000 05 ac b8 be 5f 86 04 bf 66 73 14 bf 1b d6 14 bf
       -0.3606874 -0.51767534 -0.57988584 -0.581392
000010 cb b2 35 bf c5 2d da be cd be 05 bf 82 68 27 bf
       -0.7097594 -0.42613044 -0.52244264 -0.6539384
000020 83 66 0e bf b9 ea 97 be a9 b9 11 bf d3 e8 03 bf
       -0.5562517 -0.29671267 -0.5692392 -0.51527137
000030 f2 5f 11 bf 5e 8d 0a bf a2 46 06 bf f2 4d d6 be
       -0.56787026 -0.5412196 -0.5245153 -0.41856343
000040 01 75 05 bf 11 df fd be 1a 9a de be 8f 17 13 bf
       -0.5213166 -0.4958425 -0.43476945 -0.5745782
000050 ba e4 17 bf 16 c9 c3 be d7 3f 87 be 2b bf 14 bf
       -0.59333384 -0.38239354 -0.26415893 -0.581042
000060 33 8f 23 bf 86 6e 16 bf 0b d9 cc be 86 24 18 bf
       -0.6389038 -0.58762395 -0.4000934 -0.5943073
000070 16 cb 1c bf 10 a9 e3 be 4a 87 23 bf c7 3d e8 be
       -0.61247385 -0.44464922 -0.6387831 -0.45359632

layer2.1.running_mean f4 [32]
000000 7a f5 b1 bf bd 89 79 bf 8d a7 2c bf aa 62 aa bf
       -1.3903039 -0.97475797 -0.6744316 -1.331136
000010 51 bb 73 bd 75 1d 51 bf eb 81 88 bf c4 e1 1a bf
       -0.05950481 -0.8168557 -1.0664648 -0.6050074
000020 f9 ea 87 bf fb fe fd 3d 39 53 78 bf c7 17 4d bf
       -1.0618583 0.12402149 -0.9700199 -0.80114406
000030 34 d7 0b 3f e6 03 b0 be 27 30 15 bf 62 94 86 bf
       0.5462525 -0.34377974 -0.582766 -1.0514033
000040 f1 ac b1 bf 27 99 82 be 1b a3 8e be b6 35 73 bf
       -1.3880903 -0.2550747 -0.27858815 -0.9500383
000050 de f4 94 bf a2 c1 d8 be 58 21 3e 3e 09 e9 69 bf
       -1.1637228 -0.4233523 0.18567407 -0.9137121
000060 b7 83 ac bf 4e 99 b0 3e 57 d0 aa bf 6a 24 a4 bf
       -1.3477696 0.34491962 -1.334483 -1.2823613
000070 be 77 39 bf 46 4e 72 bf c5 84 b9 bf 9c c9 4b bf
       -0.7244834 -0.94650686 -1.4493643 -0.79604506

layer2.1.running_var f4 [32]
000000 d3 9c 8b 40 10 1c 83 40 e2 6c 8d 40 8d 5a 94 40
       4.3628936 4.0971756 4.4195414 4.6360536
000010 29 74 71 40 f3 78 a9 40 6a 96 75 40 c8 ab 85 40
       3.7727149 5.2960143 3.8373055 4.1772194
000020 82 e8 82 40 0c 58 a0 40 7d 35 73 40 0f b1 3f 40
       4.0908823 5.010748 3.8001397 2.9951818
000030 77 34 13 40 82 10 82 40 18 8c 6c 40 07 cb 4e 40
       2.3000772 4.064515 3.6960506 3.2311418
000040 35 bc 36 40 47 63 2a 40 98 50 81 40 1d bc 5b 40
       2.8552372 2.6623094 4.041088 3.4333565
000050 ee 49 8f 40 45 50 79 40 66 1f 83 40 e8 c0 89 40
       4.4777746 3.8955243 4.097583 4.304798
000060 52 dc 80 40 4d df 63 40 91 55 6e 40 e6 ab 36 40
       4.0268946 3.5605042 3.7239726 2.8542418
000070 88 f2 8f 40 85 67 8d 40 d4 6c 58 40 3a ca 64 40
       4.498356 4.4188867 3.3816423 3.574843

fc.weight f4 [10, 1568]
000000 67 2e cb 3d 1d ba 76 bd 44 f7 ef bd ee 08 ee 3b
       0.0992096 -0.060236085 -0.11717084 0.007264248
000010 a1 2d 9d 3d 65 67 29 be d1 54 18 3e 35 29 23 bd
       0.07674719 -0.16543348 0.14876105 -0.03983422
000020 fd 76 d9 bc f3 e5 ff bd 26 64 86 bd ee 59 69 3c
       -0.026545996 -0.12495031 -0.065620705 0.014242632
000030 74 d9 cd bd fb 3b cb 3d 4d ef a4 3d 95 d5 e2 3b
       -0.100512415 0.0992355 0.080534555 0.0069224336
000040 b6 f6 d9 3d 69 e4 cb 3d 66 c0 d9 3d a8 48 db 3d
       0.106427595 0.09955675 0.106324 0.107072175
000050 b5 b8 f4 3d 27 b6 bf 3d 4f b2 a3 3b f9 2e 04 3e
       0.119492926 0.09360915 0.0049956213 0.12908544
000060 0e a1 b0 3d 37 31 d9 3d b2 76 91 3d 2b ab f5 3d
       0.08624469 0.1060509 0.071027175 0.11995538
000070 e1 2b 96 3d 32 74 ed 3c de 67 56 3e d7 9e 67 bd
       0.07332588 0.02898607 0.2093806 -0.056547966
000080 73 c3 f9 bb 23 0c 8a bd 52 e2 28 be 3e 14 04 3e
       -0.0076221763 -0.06740596 -0.16492584 0.12898347
000090 67 47 de 3d 81 66 10 be 6f e2 05 bf c8 b8 4c be
       0.10853463 -0.14101602 -0.52298635 -0.19992363
0000a0 a8 f1 51 bd c8 dd a6 3c 2c 34 c9 3d 59 18 69 3d
       -0.051255852 0.020369425 0.09824404 0.056907985
0000b0 b5 82 2c 3e 9d 0c 2d be 91 4b 29 3b fa f1 86 3d
       0.16846736 -0.16899343 0.0025832395 0.06589122
0000c0 5c 2f 88 3d 99 a6 6f bd 77 9c 5a bd d5 b7 a6 3d
       0.06649658 -0.05850849 -0.053371873 0.08140532
0000d0 4b 28 d2 bc b2 6e af bd 2e 1e 63 3d 67 76 b5 3d
       -0.025653979 -0.08566035 0.055448703 0.08860474
0000e0 25 7b 5c be 62 60 bd bd b0 f4 35 bb 1b 5e b5 3d
       -0.21531351 -0.09246899 -0.0027764253 0.0885584
0000f0 82 92 c5 bb ef ef 56 bd 0f c9 b8 bd e5 63 23 be
       -0.006029428 -0.052474912 -0.09022724 -0.15956075
000100 9b 0d cd 3d 6e 0b c0 3c 9e 68 ee 3c 53 af 00 3e
       0.10012361 0.02344295 0.02910262 0.12566881
000110 31 86 43 3e 1d 0c 6d be b9 2c 71 bc d9 5d 85 3d
       0.19094159 -0.23149152 -0.014720135 0.06512041
000120 40 d1 5c bd cb 55 17 be fd 38 00 be 7a 0c 9c be
       -0.053910494 -0.14778821 -0.1252174 -0.3047827
000130 35 3d 07 be 97 9c 09 be 61 66 b2 bd 7f 96 d1 3d
       -0.13206942 -0.1343864 -0.087109335 0.10233783
000140 b3 c9 14 3b 47 3f 61 3d 43 33 ba bd 95 76 20 bf
       0.002270323 0.054991987 -0.09091809 -0.6268094
000150 8b 83 f9 bd 95 9a 6e bc d0 ef 6d 3d bb 0e 4d bd
       -0.12183293 -0.014563222 0.05809003 -0.050062876
000160 44 e9 82 3d 4c c8 4c bc e0 cf f6 bd 0c 60 ea 3c
       0.06392148 -0.012498926 -0.12051368 0.028610252
000170 26 43 4a be e5 d8 fd bc 18 29 6c 3d a4 11 34 3e
       -0.19752178 -0.030987212 0.057656378 0.17584854
000180 16 ca 40 bc b6 9d 51 3d a1 4d e6 bd e9 89 94 bd
       -0.011766931 0.051175795 -0.11245275 -0.07252867
000190 24 1e 1e 3d db e7 07 3d f3 8f 9e bb 4a 42 1a 3e
       0.038602963 0.0331801 -0.0048389374 0.1506435
0001a0 e6 69 a8 3d 02 7f 1a 3e af ad d2 3d e2 48 6d 3b
       0.082233235 0.15087512 0.10287034 0.0036206772
0001b0 4b 9c a6 3e ea 19 3b 3e 3b 04 f6 3d 6f 2a ef 3d
       0.32541117 0.18271604 0.12012526 0.116780154
0001c0 bc 4a ed bd d7 7f 0a be 63 02 95 be 66 e5 83 be
       -0.1158652 -0.1352533 -0.29103383 -0.25760955
0001d0 6c 07 8d bc 05 3a bb 3d 86 e4 f2 3c 54 de 42 be
       -0.017215453 0.09141926 0.029649984 -0.19030124
0001e0 ed f2 d4 bd de b0 02 3c 60 d1 76 3d 8a 0d a0 be
       -0.10397897 0.007976739 0.06025827 -0.3126033
0001f0 5c 1f 24 be 31 a2 61 3d 51 ac 89 be ed 4b 23 be
       -0.16027588 0.05508632 -0.2688928 -0.15946932
000200 40 9e 52 be 36 28 a3 3d 64 d1 e1 bc 59 4e 53 be
       -0.2056818 0.07966654 -0.027565666 -0.20635356
000210 7d d0 0a 3d ca 70 71 bd b5 28 4e 3d aa 8e 5b 3b
       0.033890236 -0.058945455 0.05033179 0.0033501782
000220 bf c4 27 3e 70 be 96 3d 29 d4 91 3c 38 d3 53 3b
       0.16383646 0.07360542 0.017801361 0.003232194
000230 3c 12 37 3e 53 bb 1c 3d 01 cb c7 3d d9 b9 b5 bc
       0.1787805 0.038264584 0.09755517 -0.022183346
000240 3b 72 a3 be 50 1a ca bd 71 ec 17 bd bb 20 56 be
       -0.31923088 -0.098683 -0.037090722 -0.20910923
000250 7a 6d 6b bd 36 52 b7 3d 85 da a2 3d ff f1 3a 3d
       -0.05747745 0.08951227 0.079518355 0.04564094
000260 d8 bc ce bd ee 5a 4f be b9 9a fb bd 39 b9 ef 3c
       -0.10094613 -0.2024953 -0.122853704 0.029263126
000270 6b dd ee 3c de 95 46 3d 81 b6 90 bd 23 39 7f bd
       0.029158315 0.04848277 -0.0706606 -0.06231035
000280 3a 41 b3 bd 92 1e 3e bd c4 32 07 3c 48 de 0f 3e
       -0.08752675 -0.046415873 0.00825185 0.14049637
000290 bf e8 51 3e 25 ac 25 be 63 61 a6 bd b0 5f 1c 3d
       0.20498942 -0.16178949 -0.08124044 0.038177192
0002a0 92 f2 cc 3d f5 7c cd 3d e5 28 1b 3e f8 26 99 be
       0.10007204 0.10033599 0.15152319 -0.29912543
0002b0 7d 3e 0a 3d 8e 04 b2 3d 4d fc 86 3d 10 4b a1 bd
       0.033751 0.08692275 0.06591091 -0.07875645
0002c0 0f 76 d0 bd 55 ad a7 be f7 70 f9 bd a6 1e 61 3d
       -0.10178768 -0.3274943 -0.121797495 0.05496087
0002d0 a5 dd 8a 3b c9 34 13 be c0 d7 00 be 46 31 a5 be
       0.004237848 -0.14375605 -0.12582302 -0.32264155
0002e0 fd 84 89 be 9f 66 2b be b3 de d9 bd d1 ba cf be
       -0.26859275 -0.16738366 -0.1063818 -0.40572217
0002f0 4e 5b 97 bd a6 6f 12 bd a9 cc 3a bd 17 61 d3 bc
       -0.07390462 -0.035751007 -0.045605335 -0.025803132
000300 45 70 23 3e bd 30 ca 3c 5e a9 1b be 6f a1 ff bc
       0.15960796 0.024681443 -0.15201327 -0.031204907
000310 a2 64 ab bd 4d d7 da bd 3f 64 ef bd 15 e2 39 3d
       -0.083688036 -0.106855966 -0.11689042 0.045381624
000320 86 9d c2 3d 0f 88 84 3d 1a c5 76 3e e1 25 15 3e
       0.095027015 0.064712636 0.24098626 0.14565231
000330 e8 ad 38 3e 9d 0f 2a 3d 59 f6 79 bd e3 3a 3d be
       0.1803509 0.041518796 -0.06102595 -0.18479495
000340 7c 06 99 bc 09 0c 1f 3e 7e 82 fb 3d 51 99 8e be
       -0.01867985 0.15531935 0.12280749 -0.27851346
000350 0c 37 7d be 3c c5 77 3e 64 c3 fd 3d cd 98 31 3d
       -0.2472803 0.24196333 0.123907834 0.043358613
000360 37 d5 e0 3d df 4f 67 bd 94 2b b6 be e7 e3 24 3e
       0.109781675 -0.056472655 -0.35580122 0.16102563
000370 c5 d1 17 3e 45 64 19 be 84 bc cc bb 6f e3 37 3d
       0.14826114 -0.14979656 -0.0062480588 0.044894632
000380 4c bc 58 bd 19 19 7d be 52 8a 6e 3e 6c 32 76 3d
       -0.05291395 -0.24716605 0.23294953 0.06010668
000390 88 ec e6 be 66 aa 40 3b 3a 84 ff 3b d2 ce dc bc
       -0.45102334 0.002939844 0.007797745 -0.026954088
0003a0 61 7f 09 3e d6 26 04 3e 36 1a 2f be 10 b0 64 be
       0.13427497 0.1290544 -0.17099842 -0.22332788
0003b0 87 7f b7 bd 76 d9 b5 3d 81 e4 72 3d 71 1c 17 bd
       -0.08959871 0.08879368 0.05929995 -0.03689236
0003c0 e3 7c 66 3d 06 30 c9 bc 1f 89 02 bc 4b 6d da bd
       0.056271445 -0.024559032 -0.0079672625 -0.10665377
0003d0 de f9 de bd 37 28 8e 3d 4f c3 32 be 60 63 5a be
       -0.10887502 0.06941264 -0.17457317 -0.21326971
0003e0 04 3b c9 bd 06 8d 28 be c8 7f 97 be 6f 68 a1 3d
       -0.098257095 -0.16460046 -0.29589677 0.07881247
0003f0 f6 5c 99 3c 03 01 83 be d9 c4 df bd 2e 5b 05 be
       0.018721085 -0.2558671 -0.109262176 -0.13023064

fc.bias f4 [10]
000000 06 40 53 3d ee cf 0e 3e ce 18 14 bc 11 84 5c bd
       0.05157473 0.13946506 -0.009039117 -0.053836886
000010 b8 4a 7d bd 93 60 9a 3c 1a fd ab bc eb 11 1a bc
       -0.061838835 0.018844878 -0.020994712 -0.009403686
000020 bd 1d d0 bc 1f 8a 27 3c
       -0.025404805 0.010225802
